Module 9/hair_classifier_empty.onnx (onnx, 10343 bytes, 3 tensors)

conv1.bias f4 [32]
000000 22 2c ba bd 2e e7 24 3e e6 b0 18 3e b3 2d 6e 3d
       -0.09090449 0.16103813 0.14911231 0.05814905
000010 04 a6 45 3c 84 c4 25 be 0a a7 a3 bc 93 03 3d 3e
       0.012063507 -0.16188246 -0.019977111 0.18458395
000020 c8 bd 48 3d 2f fb 86 3c ad af 23 bd e1 77 89 bd
       0.049009115 0.016477196 -0.03996246 -0.06712318
000030 43 ea ea 3d 78 72 42 3c 3b 35 00 3e 10 86 0b bd
       0.11470463 0.011868112 0.12520306 -0.0340634
000040 d2 33 ac 3d 2f b0 a2 3d 41 67 fb 3c 62 aa f7 3d
       0.084083214 0.079437606 0.030688884 0.12093045
000050 1e fc f6 3d f1 aa 36 3e 78 80 17 3e 37 8f 49 bd
       0.12059806 0.17838646 0.147951 -0.049208846
000060 ae d7 26 be 4c 1c 10 3d 3e 2b dc ba 30 9a 4d bd
       -0.16293213 0.035183236 -0.0016797555 -0.050195873
000070 1e 00 04 bd a1 4c 14 3c 90 c9 0f 3e ee bc 75 3d
       -0.032226674 0.009051473 0.14041734 0.05999463

fc1.bias f4 [64]
000000 af 9c 07 3a 54 5f 4a ba 33 cc 2c 39 c5 f5 72 ba
       0.0005173189 -0.00077198935 0.00016479268 -0.000926819
000010 d4 38 e2 3a 02 24 5a b9 e6 20 d3 37 08 d9 e4 ba
       0.0017259368 -0.00020803514 2.516848e-05 -0.00174597
000020 4e b0 ea 39 e9 f1 c2 b8 31 dc 25 ba bd da 92 b9
       0.00044763315 -9.2957e-05 -0.00063270616 -0.00028010263
000030 db 79 05 39 50 1e e9 ba 53 a5 32 ba 06 91 ce ba
       0.00012729263 -0.0017785523 -0.00068147964 -0.0015759773
000040 05 2b 6f ba 52 d3 6c ba 49 8b cd ba 83 a5 6e b9
       -0.0009123537 -0.0009034175 -0.0015681769 -0.00022759107
000050 ca 08 c5 ba 88 34 bf b9 44 03 4e 3a 58 57 c0 39
       -0.0015032527 -0.00036469498 0.0007858763 0.0003668617
000060 f8 0f d0 3a f5 71 86 39 7a 6b ad b9 85 5c e2 3a
       0.00158739 0.00025643376 -0.00033077208 0.0017270005
000070 5b 3a 3d 3a 2a 22 fe b8 c8 4c d3 ba e7 cc de ba
       0.00072184735 -0.000121180274 -0.0016120905 -0.0016998322
000080 34 7b 89 3a 32 98 cb ba 8b eb a9 ba 52 e6 cf ba
       0.0010488988 -0.0015533029 -0.0012963874 -0.0015861487
000090 cf 63 02 3a d3 36 ea 39 41 ef 4f 3a f9 07 aa 3a
       0.0004973979 0.00044672805 0.0007932075 0.0012972347
0000a0 c0 44 e0 3a 8d 11 38 3a d8 75 93 b8 92 bd b7 b9
       0.0017110333 0.0007021658 -7.031456e-05 -0.0003504572
0000b0 7c 94 cd b9 d5 d4 1a 38 16 62 a2 3a 94 59 89 3a
       -0.00039211276 3.6914676e-05 0.0012388851 0.0010478967
0000c0 93 9f 69 39 5a b6 db ba 92 65 a9 ba 63 88 87 3a
       0.00022280058 -0.0016762719 -0.0012923947 0.0010340329
0000d0 93 f0 99 3a d6 30 b7 39 1e 1b db 3a db 67 c5 ba
       0.001174467 0.00034940866 0.0016716456 -0.0015060859
0000e0 b2 b0 9b 3a 35 7b 96 3a d4 a9 7d b9 36 a1 cc ba
       0.0011878221 0.001148081 -0.00024191226 -0.001561201
0000f0 11 d4 87 3a 93 9e 21 38 87 f3 84 3a 93 4c e9 ba
       0.0010362883 3.8533075e-05 0.0010143378 -0.001779931

fc2.weight f4 [1, 64]
000000 20 6e 82 bb 12 04 c3 3d b8 c8 d5 bc 74 06 9d bd
       -0.003980413 0.09522261 -0.026096687 -0.076672465
000010 f6 7a bb bd e0 bb f9 3c 98 4e e8 3c 24 ba dd bd
       -0.09154312 0.030485094 0.028357789 -0.10826519
000020 7e db ba 3d c0 54 60 3d e2 da bb bd 92 f1 8b bd
       0.09123896 0.054768324 -0.09172608 -0.06833185
000030 88 56 ac bc 8a 6f c4 3d 6c ad 73 bd a4 8e 44 bd
       -0.021037355 0.09591587 -0.05949156 -0.047987595
000040 a0 2c cf bc 98 e7 f6 3c 2a 57 cf 3d 04 ec 2d 3d
       -0.025289834 0.03013973 0.10124047 0.04246141
000050 f6 5c e7 bd 76 dc b4 bd d6 9d d4 3d ec 5a 43 bd
       -0.11297028 -0.08831112 0.10381667 -0.04769413
000060 14 6a 0d bd 52 7f a2 3d 8c a9 14 3d 10 17 3c bd
       -0.034524992 0.07934441 0.036294505 -0.04592043
000070 ac 7a 01 bd 58 a8 9a bd c0 26 ce bd d6 81 cc 3d
       -0.03161113 -0.0755164 -0.10065985 0.09985702
000080 46 df e5 bd be 4e 95 3d 78 3f 88 3c 8e 10 f9 bd
       -0.11224227 0.072904095 0.016631827 -0.12161361
000090 ca a0 c2 bd 34 e7 33 3d ca 91 fb 3d 4e ed e5 3d
       -0.09503324 0.043921664 0.122836664 0.11226903
0000a0 78 fc 9b bd 98 44 8b 3d 26 a9 98 3d 72 9e 96 bd
       -0.07616514 0.068001926 0.074541375 -0.0735444
0000b0 0c cf 48 3d 70 64 c8 bc 08 6d bd bd 8e c0 b7 bd
       0.04902558 -0.024461955 -0.09249312 -0.08972274
0000c0 4a 46 bb 3d ee 24 b9 bd 3a d1 de bd 78 ff da bd
       0.09144266 -0.09040247 -0.108797505 -0.10693258
0000d0 b4 ad 59 bd c0 ab 28 3c e0 46 7b 3c ec 6d 95 bd
       -0.05314417 0.010294855 0.015336722 -0.072963566
0000e0 80 04 0d 3b da 27 e2 3d 08 c6 b9 3c 40 61 da bb
       0.0021517575 0.11042757 0.022677436 -0.006664425
0000f0 e2 42 e8 3d 54 d0 76 bd 60 f9 76 3c 78 7f f6 3d
       0.11340882 -0.06025727 0.015074104 0.120360315
